{
    "storage": "aumx-3dem-appl-nt.weights",
    "analyses": {},
    "properties": {
        "network_id": "b:ubeyh3afn8-562569",
        "bnns_n_threads": "1",
        "bnns_fuse_conv_lrelu": "1",
        "disable_bnns_client_ptr": "true",
        "opt_squeeze_conv_expand_dims": "1",
        "bnns.experimental.enable_deconvolution": "1",
        "use_sequential_cblas": "1",
        "bnns_use_tf_layernorm_transposed": "1"
    },
    "format_version": 200,
    "metadata_in_weights": [],
    "layers": [
        {
            "bottom": "audio",
            "size_of_axes": 1,
            "axes_0": -2,
            "weights": {},
            "nd_axis": 0,
            "debug_info": "",
            "top": "input0.1_expand_dim",
            "type": "expand_dims",
            "name": "input0.1_expand_dim",
            "attributes": {
                "basic_block_head": 1
            }
        },
        {
            "bottom": "input0.1_expanded__in_state,input0.1_expand_dim",
            "weights": {},
            "axis": 0,
            "debug_info": "",
            "top": "input0.1_expanded__stateconcat",
            "type": "general_concat",
            "name": "input0.1_expanded__concat"
        },
        {
            "bottom": "input0.1_expanded__stateconcat",
            "end": 0,
            "start": -64,
            "weights": {},
            "axis": 0,
            "debug_info": "",
            "top": "input0.1_expanded__out_state",
            "type": "slice",
            "name": "input0.1_expanded__slice"
        },
        {
            "pad_r": 0,
            "fused_relu": 0,
            "fused_tanh": 0,
            "debug_info": "",
            "pad_fill_mode": 0,
            "pad_b": 0,
            "pad_l": 0,
            "top": "input0.1_expanded",
            "K": 4,
            "stride_x": 64,
            "name": "input0.1_expanded",
            "has_batch_norm": 0,
            "type": "convolution",
            "n_groups": 1,
            "pad_t": 0,
            "has_biases": 0,
            "C": 384,
            "bottom": "input0.1_expanded__stateconcat",
            "weights": {
                "W_f32_compressed_f16": 1
            },
            "Nx": 128,
            "pad_mode": 0,
            "pad_value": 0,
            "Ny": 1,
            "n_parallel": 1
        },
        {
            "size_of_axes": 1,
            "bottom": "input0.1_expanded",
            "axes_0": -2,
            "weights": {},
            "nd_axis": 0,
            "debug_info": "",
            "version": 1,
            "top": "input0.1",
            "type": "squeeze",
            "name": "input0.1"
        },
        {
            "bottom": "input0.1",
            "weights": {},
            "mode": 0,
            "debug_info": "",
            "top": "31",
            "type": "activation",
            "name": "31"
        },
        {
            "axis_h": 0,
            "axis_w": 1,
            "bottom": "31",
            "axis_k": 2,
            "axis_n": 3,
            "axis_seq": 4,
            "weights": {},
            "debug_info": "",
            "top": "stem.front_norm.norm_input",
            "type": "transpose",
            "name": "stem.front_norm.norm_input"
        },
        {
            "bottom": "stem.front_norm.norm_input",
            "weights": {
                "wBeta": 3,
                "wGamma": 5
            },
            "eps": 9.999999974752427e-07,
            "tf_layernorm": 1,
            "debug_info": "",
            "top": "stem.front_norm.norm_output",
            "type": "instancenorm_1d",
            "name": "stem.front_norm.norm",
            "biased_std": 1
        },
        {
            "axis_h": 0,
            "axis_w": 1,
            "bottom": "stem.front_norm.norm_output",
            "axis_k": 2,
            "axis_n": 3,
            "axis_seq": 4,
            "weights": {},
            "debug_info": "",
            "top": "input.8",
            "type": "transpose",
            "name": "stem.front_norm.norm_output"
        },
        {
            "size_of_axes": 1,
            "bottom": "input.8",
            "axes_0": -2,
            "weights": {},
            "nd_axis": 0,
            "debug_info": "",
            "top": "input.12_expand_dim",
            "type": "expand_dims",
            "name": "input.12_expand_dim"
        },
        {
            "pad_r": 0,
            "fused_relu": 0,
            "fused_tanh": 0,
            "debug_info": "",
            "pad_fill_mode": 0,
            "pad_b": 0,
            "pad_l": 0,
            "top": "input.12_expanded",
            "K": 384,
            "name": "input.12_expanded",
            "has_batch_norm": 0,
            "type": "convolution",
            "n_groups": 1,
            "pad_t": 0,
            "has_biases": 0,
            "C": 256,
            "bottom": "input.12_expand_dim",
            "weights": {
                "W_f32_compressed_f16": 7
            },
            "Nx": 1,
            "pad_mode": 0,
            "pad_value": 0,
            "Ny": 1,
            "n_parallel": 1
        },
        {
            "size_of_axes": 1,
            "bottom": "input.12_expanded",
            "axes_0": -2,
            "weights": {},
            "nd_axis": 0,
            "debug_info": "",
            "version": 1,
            "top": "input.12",
            "type": "squeeze",
            "name": "input.12"
        },
        {
            "size_of_axes": 0,
            "bottom": "input.12",
            "weights": {},
            "nd_axis": 2,
            "debug_info": "",
            "top": "input.5_expand_dim",
            "type": "expand_dims",
            "name": "input.5_expand_dim"
        },
        {
            "pad_r": 0,
            "fused_relu": 0,
            "fused_tanh": 0,
            "debug_info": "",
            "pad_fill_mode": 0,
            "pad_b": 0,
            "pad_l": 0,
            "top": "input.5_expanded",
            "K": 256,
            "name": "input.5_expanded",
            "has_batch_norm": 0,
            "type": "convolution",
            "n_groups": 1,
            "pad_t": 0,
            "has_biases": 0,
            "C": 256,
            "bottom": "input.5_expand_dim",
            "weights": {
                "W_f32_compressed_f16": 9
            },
            "Nx": 1,
            "pad_mode": 0,
            "pad_value": 0,
            "Ny": 1,
            "n_parallel": 1
        },
        {
            "alpha": 0.25590091943740845,
            "bottom": "input.5_expanded",
            "weights": {
                "params_prelu": 13
            },
            "mode": 2,
            "debug_info": "",
            "top": "input.5_0",
            "type": "activation",
            "name": "74",
            "beta": 0
        },
        {
            "size_of_axes": 0,
            "bottom": "input.5_0",
            "weights": {},
            "nd_axis": 2,
            "debug_info": "",
            "version": 1,
            "top": "74",
            "type": "squeeze",
            "name": "input.5"
        },
        {
            "axis_h": 0,
            "axis_w": 1,
            "bottom": "74",
            "axis_k": 2,
            "axis_n": 3,
            "axis_seq": 4,
            "weights": {},
            "debug_info": "",
            "top": "stem.sep_module.0.tcn.2.norm_input",
            "type": "transpose",
            "name": "stem.sep_module.0.tcn.2.norm_input"
        },
        {
            "bottom": "stem.sep_module.0.tcn.2.norm_input",
            "weights": {
                "wBeta": 15,
                "wGamma": 17
            },
            "eps": 9.999999974752427e-07,
            "tf_layernorm": 1,
            "debug_info": "",
            "top": "stem.sep_module.0.tcn.2.norm_output",
            "type": "instancenorm_1d",
            "name": "stem.sep_module.0.tcn.2.norm",
            "biased_std": 1
        },
        {
            "axis_h": 0,
            "axis_w": 1,
            "bottom": "stem.sep_module.0.tcn.2.norm_output",
            "axis_k": 2,
            "axis_n": 3,
            "axis_seq": 4,
            "weights": {},
            "debug_info": "",
            "top": "input.7",
            "type": "transpose",
            "name": "stem.sep_module.0.tcn.2.norm_output"
        },
        {
            "bottom": "input.9__in_state,input.7",
            "weights": {},
            "axis": 0,
            "debug_info": "",
            "top": "input.9",
            "type": "general_concat",
            "name": "input.9__concat"
        },
        {
            "bottom": "input.9",
            "end": 0,
            "start": -2,
            "weights": {},
            "axis": 0,
            "debug_info": "",
            "top": "input.9__out_state",
            "type": "slice",
            "name": "input.9__slice"
        },
        {
            "size_of_axes": 0,
            "bottom": "input.9",
            "weights": {},
            "nd_axis": 2,
            "debug_info": "",
            "top": "input.11_expand_dim",
            "type": "expand_dims",
            "name": "input.11_expand_dim"
        },
        {
            "pad_r": 0,
            "fused_relu": 0,
            "fused_tanh": 0,
            "debug_info": "",
            "pad_fill_mode": 0,
            "pad_b": 0,
            "pad_l": 0,
            "top": "input.11_expanded",
            "K": 256,
            "name": "input.11_expanded",
            "has_batch_norm": 0,
            "type": "convolution",
            "n_groups": 256,
            "pad_t": 0,
            "has_biases": 0,
            "C": 256,
            "bottom": "input.11_expand_dim",
            "weights": {
                "W_f32_compressed_f16": 19
            },
            "Nx": 3,
            "pad_mode": 0,
            "pad_value": 0,
            "Ny": 1,
            "n_parallel": 1
        },
        {
            "alpha": -0.12484617531299591,
            "bottom": "input.11_expanded",
            "weights": {
                "params_prelu": 23
            },
            "mode": 2,
            "debug_info": "",
            "top": "input.11_0",
            "type": "activation",
            "name": "97",
            "beta": 0
        },
        {
            "size_of_axes": 0,
            "bottom": "input.11_0",
            "weights": {},
            "nd_axis": 2,
            "debug_info": "",
            "version": 1,
            "top": "97",
            "type": "squeeze",
            "name": "input.11"
        },
        {
            "axis_h": 0,
            "axis_w": 1,
            "bottom": "97",
            "axis_k": 2,
            "axis_n": 3,
            "axis_seq": 4,
            "weights": {},
            "debug_info": "",
            "top": "stem.sep_module.0.tcn.6.norm_input",
            "type": "transpose",
            "name": "stem.sep_module.0.tcn.6.norm_input"
        },
        {
            "bottom": "stem.sep_module.0.tcn.6.norm_input",
            "weights": {
                "wBeta": 25,
                "wGamma": 27
            },
            "eps": 9.999999974752427e-07,
            "tf_layernorm": 1,
            "debug_info": "",
            "top": "stem.sep_module.0.tcn.6.norm_output",
            "type": "instancenorm_1d",
            "name": "stem.sep_module.0.tcn.6.norm",
            "biased_std": 1
        },
        {
            "axis_h": 0,
            "axis_w": 1,
            "bottom": "stem.sep_module.0.tcn.6.norm_output",
            "axis_k": 2,
            "axis_n": 3,
            "axis_seq": 4,
            "weights": {},
            "debug_info": "",
            "top": "y.2",
            "type": "transpose",
            "name": "stem.sep_module.0.tcn.6.norm_output"
        },
        {
            "bottom": "input.13__in_state,input.12",
            "weights": {},
            "axis": 0,
            "debug_info": "",
            "top": "input.13__stateconcat",
            "type": "general_concat",
            "name": "input.13__concat"
        },
        {
            "bottom": "input.13__stateconcat",
            "end": 0,
            "start": -1,
            "weights": {},
            "axis": 0,
            "debug_info": "",
            "top": "input.13__out_state",
            "type": "slice",
            "name": "input.13__slice"
        },
        {
            "bottom": "input.13__stateconcat",
            "t": 0,
            "weights": {},
            "l": 0,
            "debug_info": "",
            "r": 1,
            "top": "input.13__statecrop",
            "type": "crop",
            "name": "input.13__crop",
            "b": 0
        },
        {
            "bottom": "input.13__statecrop,y.2",
            "alpha": 1,
            "operation": 0,
            "weights": {},
            "fused_relu": 0,
            "debug_info": "",
            "top": "input.13",
            "type": "elementwise",
            "name": "input.13",
            "beta": 0
        },
        {
            "size_of_axes": 0,
            "bottom": "input.13",
            "weights": {},
            "nd_axis": 2,
            "debug_info": "",
            "top": "input.15_expand_dim",
            "type": "expand_dims",
            "name": "input.15_expand_dim"
        },
        {
            "pad_r": 0,
            "fused_relu": 0,
            "fused_tanh": 0,
            "debug_info": "",
            "pad_fill_mode": 0,
            "pad_b": 0,
            "pad_l": 0,
            "top": "input.15_expanded",
            "K": 256,
            "name": "input.15_expanded",
            "has_batch_norm": 0,
            "type": "convolution",
            "n_groups": 1,
            "pad_t": 0,
            "has_biases": 0,
            "C": 256,
            "bottom": "input.15_expand_dim",
            "weights": {
                "W_f32_compressed_f16": 29
            },
            "Nx": 1,
            "pad_mode": 0,
            "pad_value": 0,
            "Ny": 1,
            "n_parallel": 1
        },
        {
            "alpha": 0.5475243330001831,
            "bottom": "input.15_expanded",
            "weights": {
                "params_prelu": 33
            },
            "mode": 2,
            "debug_info": "",
            "top": "input.15_0",
            "type": "activation",
            "name": "126",
            "beta": 0
        },
        {
            "size_of_axes": 0,
            "bottom": "input.15_0",
            "weights": {},
            "nd_axis": 2,
            "debug_info": "",
            "version": 1,
            "top": "126",
            "type": "squeeze",
            "name": "input.15"
        },
        {
            "axis_h": 0,
            "axis_w": 1,
            "bottom": "126",
            "axis_k": 2,
            "axis_n": 3,
            "axis_seq": 4,
            "weights": {},
            "debug_info": "",
            "top": "stem.sep_module.1.tcn.2.norm_input",
            "type": "transpose",
            "name": "stem.sep_module.1.tcn.2.norm_input"
        },
        {
            "bottom": "stem.sep_module.1.tcn.2.norm_input",
            "weights": {
                "wBeta": 35,
                "wGamma": 37
            },
            "eps": 9.999999974752427e-07,
            "tf_layernorm": 1,
            "debug_info": "",
            "top": "stem.sep_module.1.tcn.2.norm_output",
            "type": "instancenorm_1d",
            "name": "stem.sep_module.1.tcn.2.norm",
            "biased_std": 1
        },
        {
            "axis_h": 0,
            "axis_w": 1,
            "bottom": "stem.sep_module.1.tcn.2.norm_output",
            "axis_k": 2,
            "axis_n": 3,
            "axis_seq": 4,
            "weights": {},
            "debug_info": "",
            "top": "input.17",
            "type": "transpose",
            "name": "stem.sep_module.1.tcn.2.norm_output"
        },
        {
            "bottom": "input.19__in_state,input.17",
            "weights": {},
            "axis": 0,
            "debug_info": "",
            "top": "input.19",
            "type": "general_concat",
            "name": "input.19__concat"
        },
        {
            "bottom": "input.19",
            "end": 0,
            "start": -4,
            "weights": {},
            "axis": 0,
            "debug_info": "",
            "top": "input.19__out_state",
            "type": "slice",
            "name": "input.19__slice"
        },
        {
            "size_of_axes": 0,
            "bottom": "input.19",
            "weights": {},
            "nd_axis": 2,
            "debug_info": "",
            "top": "input.21_expand_dim",
            "type": "expand_dims",
            "name": "input.21_expand_dim"
        },
        {
            "pad_r": 0,
            "fused_relu": 0,
            "fused_tanh": 0,
            "debug_info": "",
            "pad_fill_mode": 0,
            "pad_b": 0,
            "pad_l": 0,
            "top": "input.21_expanded",
            "K": 256,
            "name": "input.21_expanded",
            "has_batch_norm": 0,
            "type": "convolution",
            "n_groups": 256,
            "pad_t": 0,
            "has_biases": 0,
            "C": 256,
            "bottom": "input.21_expand_dim",
            "weights": {
                "W_f32_compressed_f16": 39
            },
            "Nx": 3,
            "pad_mode": 0,
            "dilation_x": 2,
            "pad_value": 0,
            "Ny": 1,
            "n_parallel": 1
        },
        {
            "alpha": -0.022548090666532516,
            "bottom": "input.21_expanded",
            "weights": {
                "params_prelu": 43
            },
            "mode": 2,
            "debug_info": "",
            "top": "input.21_0",
            "type": "activation",
            "name": "149",
            "beta": 0
        },
        {
            "size_of_axes": 0,
            "bottom": "input.21_0",
            "weights": {},
            "nd_axis": 2,
            "debug_info": "",
            "version": 1,
            "top": "149",
            "type": "squeeze",
            "name": "input.21"
        },
        {
            "axis_h": 0,
            "axis_w": 1,
            "bottom": "149",
            "axis_k": 2,
            "axis_n": 3,
            "axis_seq": 4,
            "weights": {},
            "debug_info": "",
            "top": "stem.sep_module.1.tcn.6.norm_input",
            "type": "transpose",
            "name": "stem.sep_module.1.tcn.6.norm_input"
        },
        {
            "bottom": "stem.sep_module.1.tcn.6.norm_input",
            "weights": {
                "wBeta": 45,
                "wGamma": 47
            },
            "eps": 9.999999974752427e-07,
            "tf_layernorm": 1,
            "debug_info": "",
            "top": "stem.sep_module.1.tcn.6.norm_output",
            "type": "instancenorm_1d",
            "name": "stem.sep_module.1.tcn.6.norm",
            "biased_std": 1
        },
        {
            "axis_h": 0,
            "axis_w": 1,
            "bottom": "stem.sep_module.1.tcn.6.norm_output",
            "axis_k": 2,
            "axis_n": 3,
            "axis_seq": 4,
            "weights": {},
            "debug_info": "",
            "top": "y.4",
            "type": "transpose",
            "name": "stem.sep_module.1.tcn.6.norm_output"
        },
        {
            "bottom": "input.23__in_state,input.13",
            "weights": {},
            "axis": 0,
            "debug_info": "",
            "top": "input.23__stateconcat",
            "type": "general_concat",
            "name": "input.23__concat"
        },
        {
            "bottom": "input.23__stateconcat",
            "end": 0,
            "start": -2,
            "weights": {},
            "axis": 0,
            "debug_info": "",
            "top": "input.23__out_state",
            "type": "slice",
            "name": "input.23__slice"
        },
        {
            "bottom": "input.23__stateconcat",
            "t": 0,
            "weights": {},
            "l": 0,
            "debug_info": "",
            "r": 2,
            "top": "input.23__statecrop",
            "type": "crop",
            "name": "input.23__crop",
            "b": 0
        },
        {
            "bottom": "input.23__statecrop,y.4",
            "alpha": 1,
            "operation": 0,
            "weights": {},
            "fused_relu": 0,
            "debug_info": "",
            "top": "input.23",
            "type": "elementwise",
            "name": "input.23",
            "beta": 0
        },
        {
            "size_of_axes": 0,
            "bottom": "input.23",
            "weights": {},
            "nd_axis": 2,
            "debug_info": "",
            "top": "input.25_expand_dim",
            "type": "expand_dims",
            "name": "input.25_expand_dim"
        },
        {
            "pad_r": 0,
            "fused_relu": 0,
            "fused_tanh": 0,
            "debug_info": "",
            "pad_fill_mode": 0,
            "pad_b": 0,
            "pad_l": 0,
            "top": "input.25_expanded",
            "K": 256,
            "name": "input.25_expanded",
            "has_batch_norm": 0,
            "type": "convolution",
            "n_groups": 1,
            "pad_t": 0,
            "has_biases": 0,
            "C": 256,
            "bottom": "input.25_expand_dim",
            "weights": {
                "W_f32_compressed_f16": 49
            },
            "Nx": 1,
            "pad_mode": 0,
            "pad_value": 0,
            "Ny": 1,
            "n_parallel": 1
        },
        {
            "alpha": -0.8755800127983093,
            "bottom": "input.25_expanded",
            "weights": {
                "params_prelu": 53
            },
            "mode": 2,
            "debug_info": "",
            "top": "input.25_0",
            "type": "activation",
            "name": "178",
            "beta": 0
        },
        {
            "size_of_axes": 0,
            "bottom": "input.25_0",
            "weights": {},
            "nd_axis": 2,
            "debug_info": "",
            "version": 1,
            "top": "178",
            "type": "squeeze",
            "name": "input.25"
        },
        {
            "axis_h": 0,
            "axis_w": 1,
            "bottom": "178",
            "axis_k": 2,
            "axis_n": 3,
            "axis_seq": 4,
            "weights": {},
            "debug_info": "",
            "top": "stem.sep_module.2.tcn.2.norm_input",
            "type": "transpose",
            "name": "stem.sep_module.2.tcn.2.norm_input"
        },
        {
            "bottom": "stem.sep_module.2.tcn.2.norm_input",
            "weights": {
                "wBeta": 55,
                "wGamma": 57
            },
            "eps": 9.999999974752427e-07,
            "tf_layernorm": 1,
            "debug_info": "",
            "top": "stem.sep_module.2.tcn.2.norm_output",
            "type": "instancenorm_1d",
            "name": "stem.sep_module.2.tcn.2.norm",
            "biased_std": 1
        },
        {
            "axis_h": 0,
            "axis_w": 1,
            "bottom": "stem.sep_module.2.tcn.2.norm_output",
            "axis_k": 2,
            "axis_n": 3,
            "axis_seq": 4,
            "weights": {},
            "debug_info": "",
            "top": "input.27",
            "type": "transpose",
            "name": "stem.sep_module.2.tcn.2.norm_output"
        },
        {
            "bottom": "input.29__in_state,input.27",
            "weights": {},
            "axis": 0,
            "debug_info": "",
            "top": "input.29",
            "type": "general_concat",
            "name": "input.29__concat"
        },
        {
            "bottom": "input.29",
            "end": 0,
            "start": -8,
            "weights": {},
            "axis": 0,
            "debug_info": "",
            "top": "input.29__out_state",
            "type": "slice",
            "name": "input.29__slice"
        },
        {
            "size_of_axes": 0,
            "bottom": "input.29",
            "weights": {},
            "nd_axis": 2,
            "debug_info": "",
            "top": "input.31_expand_dim",
            "type": "expand_dims",
            "name": "input.31_expand_dim"
        },
        {
            "pad_r": 0,
            "fused_relu": 0,
            "fused_tanh": 0,
            "debug_info": "",
            "pad_fill_mode": 0,
            "pad_b": 0,
            "pad_l": 0,
            "top": "input.31_expanded",
            "K": 256,
            "name": "input.31_expanded",
            "has_batch_norm": 0,
            "type": "convolution",
            "n_groups": 256,
            "pad_t": 0,
            "has_biases": 0,
            "C": 256,
            "bottom": "input.31_expand_dim",
            "weights": {
                "W_f32_compressed_f16": 59
            },
            "Nx": 3,
            "pad_mode": 0,
            "dilation_x": 4,
            "pad_value": 0,
            "Ny": 1,
            "n_parallel": 1
        },
        {
            "alpha": 0.3705873489379883,
            "bottom": "input.31_expanded",
            "weights": {
                "params_prelu": 63
            },
            "mode": 2,
            "debug_info": "",
            "top": "input.31_0",
            "type": "activation",
            "name": "201",
            "beta": 0
        },
        {
            "size_of_axes": 0,
            "bottom": "input.31_0",
            "weights": {},
            "nd_axis": 2,
            "debug_info": "",
            "version": 1,
            "top": "201",
            "type": "squeeze",
            "name": "input.31"
        },
        {
            "axis_h": 0,
            "axis_w": 1,
            "bottom": "201",
            "axis_k": 2,
            "axis_n": 3,
            "axis_seq": 4,
            "weights": {},
            "debug_info": "",
            "top": "stem.sep_module.2.tcn.6.norm_input",
            "type": "transpose",
            "name": "stem.sep_module.2.tcn.6.norm_input"
        },
        {
            "bottom": "stem.sep_module.2.tcn.6.norm_input",
            "weights": {
                "wBeta": 65,
                "wGamma": 67
            },
            "eps": 9.999999974752427e-07,
            "tf_layernorm": 1,
            "debug_info": "",
            "top": "stem.sep_module.2.tcn.6.norm_output",
            "type": "instancenorm_1d",
            "name": "stem.sep_module.2.tcn.6.norm",
            "biased_std": 1
        },
        {
            "axis_h": 0,
            "axis_w": 1,
            "bottom": "stem.sep_module.2.tcn.6.norm_output",
            "axis_k": 2,
            "axis_n": 3,
            "axis_seq": 4,
            "weights": {},
            "debug_info": "",
            "top": "y.6",
            "type": "transpose",
            "name": "stem.sep_module.2.tcn.6.norm_output"
        },
        {
            "bottom": "input.33__in_state,input.23",
            "weights": {},
            "axis": 0,
            "debug_info": "",
            "top": "input.33__stateconcat",
            "type": "general_concat",
            "name": "input.33__concat"
        },
        {
            "bottom": "input.33__stateconcat",
            "end": 0,
            "start": -4,
            "weights": {},
            "axis": 0,
            "debug_info": "",
            "top": "input.33__out_state",
            "type": "slice",
            "name": "input.33__slice"
        },
        {
            "bottom": "input.33__stateconcat",
            "t": 0,
            "weights": {},
            "l": 0,
            "debug_info": "",
            "r": 4,
            "top": "input.33__statecrop",
            "type": "crop",
            "name": "input.33__crop",
            "b": 0
        },
        {
            "bottom": "input.33__statecrop,y.6",
            "alpha": 1,
            "operation": 0,
            "weights": {},
            "fused_relu": 0,
            "debug_info": "",
            "top": "input.33",
            "type": "elementwise",
            "name": "input.33",
            "beta": 0
        },
        {
            "size_of_axes": 0,
            "bottom": "input.33",
            "weights": {},
            "nd_axis": 2,
            "debug_info": "",
            "top": "input.35_expand_dim",
            "type": "expand_dims",
            "name": "input.35_expand_dim"
        },
        {
            "pad_r": 0,
            "fused_relu": 0,
            "fused_tanh": 0,
            "debug_info": "",
            "pad_fill_mode": 0,
            "pad_b": 0,
            "pad_l": 0,
            "top": "input.35_expanded",
            "K": 256,
            "name": "input.35_expanded",
            "has_batch_norm": 0,
            "type": "convolution",
            "n_groups": 1,
            "pad_t": 0,
            "has_biases": 0,
            "C": 256,
            "bottom": "input.35_expand_dim",
            "weights": {
                "W_f32_compressed_f16": 69
            },
            "Nx": 1,
            "pad_mode": 0,
            "pad_value": 0,
            "Ny": 1,
            "n_parallel": 1
        },
        {
            "alpha": 0.44684502482414246,
            "bottom": "input.35_expanded",
            "weights": {
                "params_prelu": 73
            },
            "mode": 2,
            "debug_info": "",
            "top": "input.35_0",
            "type": "activation",
            "name": "230",
            "beta": 0
        },
        {
            "size_of_axes": 0,
            "bottom": "input.35_0",
            "weights": {},
            "nd_axis": 2,
            "debug_info": "",
            "version": 1,
            "top": "230",
            "type": "squeeze",
            "name": "input.35"
        },
        {
            "axis_h": 0,
            "axis_w": 1,
            "bottom": "230",
            "axis_k": 2,
            "axis_n": 3,
            "axis_seq": 4,
            "weights": {},
            "debug_info": "",
            "top": "stem.sep_module.3.tcn.2.norm_input",
            "type": "transpose",
            "name": "stem.sep_module.3.tcn.2.norm_input"
        },
        {
            "bottom": "stem.sep_module.3.tcn.2.norm_input",
            "weights": {
                "wBeta": 75,
                "wGamma": 77
            },
            "eps": 9.999999974752427e-07,
            "tf_layernorm": 1,
            "debug_info": "",
            "top": "stem.sep_module.3.tcn.2.norm_output",
            "type": "instancenorm_1d",
            "name": "stem.sep_module.3.tcn.2.norm",
            "biased_std": 1
        },
        {
            "axis_h": 0,
            "axis_w": 1,
            "bottom": "stem.sep_module.3.tcn.2.norm_output",
            "axis_k": 2,
            "axis_n": 3,
            "axis_seq": 4,
            "weights": {},
            "debug_info": "",
            "top": "input.37",
            "type": "transpose",
            "name": "stem.sep_module.3.tcn.2.norm_output"
        },
        {
            "bottom": "input.39__in_state,input.37",
            "weights": {},
            "axis": 0,
            "debug_info": "",
            "top": "input.39",
            "type": "general_concat",
            "name": "input.39__concat"
        },
        {
            "bottom": "input.39",
            "end": 0,
            "start": -16,
            "weights": {},
            "axis": 0,
            "debug_info": "",
            "top": "input.39__out_state",
            "type": "slice",
            "name": "input.39__slice"
        },
        {
            "size_of_axes": 0,
            "bottom": "input.39",
            "weights": {},
            "nd_axis": 2,
            "debug_info": "",
            "top": "input.41_expand_dim",
            "type": "expand_dims",
            "name": "input.41_expand_dim"
        },
        {
            "pad_r": 0,
            "fused_relu": 0,
            "fused_tanh": 0,
            "debug_info": "",
            "pad_fill_mode": 0,
            "pad_b": 0,
            "pad_l": 0,
            "top": "input.41_expanded",
            "K": 256,
            "name": "input.41_expanded",
            "has_batch_norm": 0,
            "type": "convolution",
            "n_groups": 256,
            "pad_t": 0,
            "has_biases": 0,
            "C": 256,
            "bottom": "input.41_expand_dim",
            "weights": {
                "W_f32_compressed_f16": 79
            },
            "Nx": 3,
            "pad_mode": 0,
            "dilation_x": 8,
            "pad_value": 0,
            "Ny": 1,
            "n_parallel": 1
        },
        {
            "alpha": 0.4566029906272888,
            "bottom": "input.41_expanded",
            "weights": {
                "params_prelu": 83
            },
            "mode": 2,
            "debug_info": "",
            "top": "input.41_0",
            "type": "activation",
            "name": "253",
            "beta": 0
        },
        {
            "size_of_axes": 0,
            "bottom": "input.41_0",
            "weights": {},
            "nd_axis": 2,
            "debug_info": "",
            "version": 1,
            "top": "253",
            "type": "squeeze",
            "name": "input.41"
        },
        {
            "axis_h": 0,
            "axis_w": 1,
            "bottom": "253",
            "axis_k": 2,
            "axis_n": 3,
            "axis_seq": 4,
            "weights": {},
            "debug_info": "",
            "top": "stem.sep_module.3.tcn.6.norm_input",
            "type": "transpose",
            "name": "stem.sep_module.3.tcn.6.norm_input"
        },
        {
            "bottom": "stem.sep_module.3.tcn.6.norm_input",
            "weights": {
                "wBeta": 85,
                "wGamma": 87
            },
            "eps": 9.999999974752427e-07,
            "tf_layernorm": 1,
            "debug_info": "",
            "top": "stem.sep_module.3.tcn.6.norm_output",
            "type": "instancenorm_1d",
            "name": "stem.sep_module.3.tcn.6.norm",
            "biased_std": 1
        },
        {
            "axis_h": 0,
            "axis_w": 1,
            "bottom": "stem.sep_module.3.tcn.6.norm_output",
            "axis_k": 2,
            "axis_n": 3,
            "axis_seq": 4,
            "weights": {},
            "debug_info": "",
            "top": "y.8",
            "type": "transpose",
            "name": "stem.sep_module.3.tcn.6.norm_output"
        },
        {
            "bottom": "input.43__in_state,input.33",
            "weights": {},
            "axis": 0,
            "debug_info": "",
            "top": "input.43__stateconcat",
            "type": "general_concat",
            "name": "input.43__concat"
        },
        {
            "bottom": "input.43__stateconcat",
            "end": 0,
            "start": -8,
            "weights": {},
            "axis": 0,
            "debug_info": "",
            "top": "input.43__out_state",
            "type": "slice",
            "name": "input.43__slice"
        },
        {
            "bottom": "input.43__stateconcat",
            "t": 0,
            "weights": {},
            "l": 0,
            "debug_info": "",
            "r": 8,
            "top": "input.43__statecrop",
            "type": "crop",
            "name": "input.43__crop",
            "b": 0
        },
        {
            "bottom": "input.43__statecrop,y.8",
            "alpha": 1,
            "operation": 0,
            "weights": {},
            "fused_relu": 0,
            "debug_info": "",
            "top": "input.43",
            "type": "elementwise",
            "name": "input.43",
            "beta": 0
        },
        {
            "size_of_axes": 0,
            "bottom": "input.43",
            "weights": {},
            "nd_axis": 2,
            "debug_info": "",
            "top": "input.45_expand_dim",
            "type": "expand_dims",
            "name": "input.45_expand_dim"
        },
        {
            "pad_r": 0,
            "fused_relu": 0,
            "fused_tanh": 0,
            "debug_info": "",
            "pad_fill_mode": 0,
            "pad_b": 0,
            "pad_l": 0,
            "top": "input.45_expanded",
            "K": 256,
            "name": "input.45_expanded",
            "has_batch_norm": 0,
            "type": "convolution",
            "n_groups": 1,
            "pad_t": 0,
            "has_biases": 0,
            "C": 256,
            "bottom": "input.45_expand_dim",
            "weights": {
                "W_f32_compressed_f16": 89
            },
            "Nx": 1,
            "pad_mode": 0,
            "pad_value": 0,
            "Ny": 1,
            "n_parallel": 1
        },
        {
            "alpha": 3.1844913959503174,
            "bottom": "input.45_expanded",
            "weights": {
                "params_prelu": 93
            },
            "mode": 2,
            "debug_info": "",
            "top": "input.45_0",
            "type": "activation",
            "name": "282",
            "beta": 0
        },
        {
            "size_of_axes": 0,
            "bottom": "input.45_0",
            "weights": {},
            "nd_axis": 2,
            "debug_info": "",
            "version": 1,
            "top": "282",
            "type": "squeeze",
            "name": "input.45"
        },
        {
            "axis_h": 0,
            "axis_w": 1,
            "bottom": "282",
            "axis_k": 2,
            "axis_n": 3,
            "axis_seq": 4,
            "weights": {},
            "debug_info": "",
            "top": "stem.sep_module.4.tcn.2.norm_input",
            "type": "transpose",
            "name": "stem.sep_module.4.tcn.2.norm_input"
        },
        {
            "bottom": "stem.sep_module.4.tcn.2.norm_input",
            "weights": {
                "wBeta": 95,
                "wGamma": 97
            },
            "eps": 9.999999974752427e-07,
            "tf_layernorm": 1,
            "debug_info": "",
            "top": "stem.sep_module.4.tcn.2.norm_output",
            "type": "instancenorm_1d",
            "name": "stem.sep_module.4.tcn.2.norm",
            "biased_std": 1
        },
        {
            "axis_h": 0,
            "axis_w": 1,
            "bottom": "stem.sep_module.4.tcn.2.norm_output",
            "axis_k": 2,
            "axis_n": 3,
            "axis_seq": 4,
            "weights": {},
            "debug_info": "",
            "top": "input.47",
            "type": "transpose",
            "name": "stem.sep_module.4.tcn.2.norm_output"
        },
        {
            "bottom": "input.49__in_state,input.47",
            "weights": {},
            "axis": 0,
            "debug_info": "",
            "top": "input.49",
            "type": "general_concat",
            "name": "input.49__concat"
        },
        {
            "bottom": "input.49",
            "end": 0,
            "start": -32,
            "weights": {},
            "axis": 0,
            "debug_info": "",
            "top": "input.49__out_state",
            "type": "slice",
            "name": "input.49__slice"
        },
        {
            "size_of_axes": 0,
            "bottom": "input.49",
            "weights": {},
            "nd_axis": 2,
            "debug_info": "",
            "top": "input.51_expand_dim",
            "type": "expand_dims",
            "name": "input.51_expand_dim"
        },
        {
            "pad_r": 0,
            "fused_relu": 0,
            "fused_tanh": 0,
            "debug_info": "",
            "pad_fill_mode": 0,
            "pad_b": 0,
            "pad_l": 0,
            "top": "input.51_expanded",
            "K": 256,
            "name": "input.51_expanded",
            "has_batch_norm": 0,
            "type": "convolution",
            "n_groups": 256,
            "pad_t": 0,
            "has_biases": 0,
            "C": 256,
            "bottom": "input.51_expand_dim",
            "weights": {
                "W_f32_compressed_f16": 99
            },
            "Nx": 3,
            "pad_mode": 0,
            "dilation_x": 16,
            "pad_value": 0,
            "Ny": 1,
            "n_parallel": 1
        },
        {
            "alpha": -0.7289606928825378,
            "bottom": "input.51_expanded",
            "weights": {
                "params_prelu": 103
            },
            "mode": 2,
            "debug_info": "",
            "top": "input.51_0",
            "type": "activation",
            "name": "305",
            "beta": 0
        },
        {
            "size_of_axes": 0,
            "bottom": "input.51_0",
            "weights": {},
            "nd_axis": 2,
            "debug_info": "",
            "version": 1,
            "top": "305",
            "type": "squeeze",
            "name": "input.51"
        },
        {
            "axis_h": 0,
            "axis_w": 1,
            "bottom": "305",
            "axis_k": 2,
            "axis_n": 3,
            "axis_seq": 4,
            "weights": {},
            "debug_info": "",
            "top": "stem.sep_module.4.tcn.6.norm_input",
            "type": "transpose",
            "name": "stem.sep_module.4.tcn.6.norm_input"
        },
        {
            "bottom": "stem.sep_module.4.tcn.6.norm_input",
            "weights": {
                "wBeta": 105,
                "wGamma": 107
            },
            "eps": 9.999999974752427e-07,
            "tf_layernorm": 1,
            "debug_info": "",
            "top": "stem.sep_module.4.tcn.6.norm_output",
            "type": "instancenorm_1d",
            "name": "stem.sep_module.4.tcn.6.norm",
            "biased_std": 1
        },
        {
            "axis_h": 0,
            "axis_w": 1,
            "bottom": "stem.sep_module.4.tcn.6.norm_output",
            "axis_k": 2,
            "axis_n": 3,
            "axis_seq": 4,
            "weights": {},
            "debug_info": "",
            "top": "y.10",
            "type": "transpose",
            "name": "stem.sep_module.4.tcn.6.norm_output"
        },
        {
            "bottom": "input.43,y.10",
            "alpha": 1,
            "operation": 0,
            "weights": {},
            "fused_relu": 0,
            "debug_info": "",
            "top": "input.53",
            "type": "elementwise",
            "name": "input.53",
            "beta": 0
        },
        {
            "size_of_axes": 0,
            "bottom": "input.53",
            "weights": {},
            "nd_axis": 2,
            "debug_info": "",
            "top": "input.55_expand_dim",
            "type": "expand_dims",
            "name": "input.55_expand_dim"
        },
        {
            "pad_r": 0,
            "fused_relu": 0,
            "fused_tanh": 0,
            "debug_info": "",
            "pad_fill_mode": 0,
            "pad_b": 0,
            "pad_l": 0,
            "top": "input.55_expanded",
            "K": 256,
            "name": "input.55_expanded",
            "has_batch_norm": 0,
            "type": "convolution",
            "n_groups": 1,
            "pad_t": 0,
            "has_biases": 0,
            "C": 256,
            "bottom": "input.55_expand_dim",
            "weights": {
                "W_f32_compressed_f16": 109
            },
            "Nx": 1,
            "pad_mode": 0,
            "pad_value": 0,
            "Ny": 1,
            "n_parallel": 1
        },
        {
            "alpha": 0.31663575768470764,
            "bottom": "input.55_expanded",
            "weights": {
                "params_prelu": 113
            },
            "mode": 2,
            "debug_info": "",
            "top": "input.55_0",
            "type": "activation",
            "name": "334",
            "beta": 0
        },
        {
            "size_of_axes": 0,
            "bottom": "input.55_0",
            "weights": {},
            "nd_axis": 2,
            "debug_info": "",
            "version": 1,
            "top": "334",
            "type": "squeeze",
            "name": "input.55"
        },
        {
            "axis_h": 0,
            "axis_w": 1,
            "bottom": "334",
            "axis_k": 2,
            "axis_n": 3,
            "axis_seq": 4,
            "weights": {},
            "debug_info": "",
            "top": "stem.sep_module.5.tcn.2.norm_input",
            "type": "transpose",
            "name": "stem.sep_module.5.tcn.2.norm_input"
        },
        {
            "bottom": "stem.sep_module.5.tcn.2.norm_input",
            "weights": {
                "wBeta": 115,
                "wGamma": 117
            },
            "eps": 9.999999974752427e-07,
            "tf_layernorm": 1,
            "debug_info": "",
            "top": "stem.sep_module.5.tcn.2.norm_output",
            "type": "instancenorm_1d",
            "name": "stem.sep_module.5.tcn.2.norm",
            "biased_std": 1
        },
        {
            "axis_h": 0,
            "axis_w": 1,
            "bottom": "stem.sep_module.5.tcn.2.norm_output",
            "axis_k": 2,
            "axis_n": 3,
            "axis_seq": 4,
            "weights": {},
            "debug_info": "",
            "top": "input.57",
            "type": "transpose",
            "name": "stem.sep_module.5.tcn.2.norm_output"
        },
        {
            "bottom": "input.59__in_state,input.57",
            "weights": {},
            "axis": 0,
            "debug_info": "",
            "top": "input.59",
            "type": "general_concat",
            "name": "input.59__concat"
        },
        {
            "bottom": "input.59",
            "end": 0,
            "start": -64,
            "weights": {},
            "axis": 0,
            "debug_info": "",
            "top": "input.59__out_state",
            "type": "slice",
            "name": "input.59__slice"
        },
        {
            "size_of_axes": 0,
            "bottom": "input.59",
            "weights": {},
            "nd_axis": 2,
            "debug_info": "",
            "top": "input.61_expand_dim",
            "type": "expand_dims",
            "name": "input.61_expand_dim"
        },
        {
            "pad_r": 0,
            "fused_relu": 0,
            "fused_tanh": 0,
            "debug_info": "",
            "pad_fill_mode": 0,
            "pad_b": 0,
            "pad_l": 0,
            "top": "input.61_expanded",
            "K": 256,
            "name": "input.61_expanded",
            "has_batch_norm": 0,
            "type": "convolution",
            "n_groups": 256,
            "pad_t": 0,
            "has_biases": 0,
            "C": 256,
            "bottom": "input.61_expand_dim",
            "weights": {
                "W_f32_compressed_f16": 119
            },
            "Nx": 3,
            "pad_mode": 0,
            "dilation_x": 32,
            "pad_value": 0,
            "Ny": 1,
            "n_parallel": 1
        },
        {
            "alpha": -0.5829126238822937,
            "bottom": "input.61_expanded",
            "weights": {
                "params_prelu": 123
            },
            "mode": 2,
            "debug_info": "",
            "top": "input.61_0",
            "type": "activation",
            "name": "357",
            "beta": 0
        },
        {
            "size_of_axes": 0,
            "bottom": "input.61_0",
            "weights": {},
            "nd_axis": 2,
            "debug_info": "",
            "version": 1,
            "top": "357",
            "type": "squeeze",
            "name": "input.61"
        },
        {
            "axis_h": 0,
            "axis_w": 1,
            "bottom": "357",
            "axis_k": 2,
            "axis_n": 3,
            "axis_seq": 4,
            "weights": {},
            "debug_info": "",
            "top": "stem.sep_module.5.tcn.6.norm_input",
            "type": "transpose",
            "name": "stem.sep_module.5.tcn.6.norm_input"
        },
        {
            "bottom": "stem.sep_module.5.tcn.6.norm_input",
            "weights": {
                "wBeta": 125,
                "wGamma": 127
            },
            "eps": 9.999999974752427e-07,
            "tf_layernorm": 1,
            "debug_info": "",
            "top": "stem.sep_module.5.tcn.6.norm_output",
            "type": "instancenorm_1d",
            "name": "stem.sep_module.5.tcn.6.norm",
            "biased_std": 1
        },
        {
            "axis_h": 0,
            "axis_w": 1,
            "bottom": "stem.sep_module.5.tcn.6.norm_output",
            "axis_k": 2,
            "axis_n": 3,
            "axis_seq": 4,
            "weights": {},
            "debug_info": "",
            "top": "y.12",
            "type": "transpose",
            "name": "stem.sep_module.5.tcn.6.norm_output"
        },
        {
            "bottom": "input.53,y.12",
            "alpha": 1,
            "operation": 0,
            "weights": {},
            "fused_relu": 0,
            "debug_info": "",
            "top": "input.63",
            "type": "elementwise",
            "name": "input.63",
            "beta": 0
        },
        {
            "size_of_axes": 0,
            "bottom": "input.63",
            "weights": {},
            "nd_axis": 2,
            "debug_info": "",
            "top": "input.65_expand_dim",
            "type": "expand_dims",
            "name": "input.65_expand_dim"
        },
        {
            "pad_r": 0,
            "fused_relu": 0,
            "fused_tanh": 0,
            "debug_info": "",
            "pad_fill_mode": 0,
            "pad_b": 0,
            "pad_l": 0,
            "top": "input.65_expanded",
            "K": 256,
            "name": "input.65_expanded",
            "has_batch_norm": 0,
            "type": "convolution",
            "n_groups": 1,
            "pad_t": 0,
            "has_biases": 0,
            "C": 256,
            "bottom": "input.65_expand_dim",
            "weights": {
                "W_f32_compressed_f16": 129
            },
            "Nx": 1,
            "pad_mode": 0,
            "pad_value": 0,
            "Ny": 1,
            "n_parallel": 1
        },
        {
            "alpha": 0.2891601324081421,
            "bottom": "input.65_expanded",
            "weights": {
                "params_prelu": 133
            },
            "mode": 2,
            "debug_info": "",
            "top": "input.65_0",
            "type": "activation",
            "name": "386",
            "beta": 0
        },
        {
            "size_of_axes": 0,
            "bottom": "input.65_0",
            "weights": {},
            "nd_axis": 2,
            "debug_info": "",
            "version": 1,
            "top": "386",
            "type": "squeeze",
            "name": "input.65"
        },
        {
            "axis_h": 0,
            "axis_w": 1,
            "bottom": "386",
            "axis_k": 2,
            "axis_n": 3,
            "axis_seq": 4,
            "weights": {},
            "debug_info": "",
            "top": "stem.sep_module.6.tcn.2.norm_input",
            "type": "transpose",
            "name": "stem.sep_module.6.tcn.2.norm_input"
        },
        {
            "bottom": "stem.sep_module.6.tcn.2.norm_input",
            "weights": {
                "wBeta": 135,
                "wGamma": 137
            },
            "eps": 9.999999974752427e-07,
            "tf_layernorm": 1,
            "debug_info": "",
            "top": "stem.sep_module.6.tcn.2.norm_output",
            "type": "instancenorm_1d",
            "name": "stem.sep_module.6.tcn.2.norm",
            "biased_std": 1
        },
        {
            "axis_h": 0,
            "axis_w": 1,
            "bottom": "stem.sep_module.6.tcn.2.norm_output",
            "axis_k": 2,
            "axis_n": 3,
            "axis_seq": 4,
            "weights": {},
            "debug_info": "",
            "top": "input.67",
            "type": "transpose",
            "name": "stem.sep_module.6.tcn.2.norm_output"
        },
        {
            "bottom": "input.69__in_state,input.67",
            "weights": {},
            "axis": 0,
            "debug_info": "",
            "top": "input.69",
            "type": "general_concat",
            "name": "input.69__concat"
        },
        {
            "bottom": "input.69",
            "end": 0,
            "start": -128,
            "weights": {},
            "axis": 0,
            "debug_info": "",
            "top": "input.69__out_state",
            "type": "slice",
            "name": "input.69__slice"
        },
        {
            "size_of_axes": 0,
            "bottom": "input.69",
            "weights": {},
            "nd_axis": 2,
            "debug_info": "",
            "top": "input.71_expand_dim",
            "type": "expand_dims",
            "name": "input.71_expand_dim"
        },
        {
            "pad_r": 0,
            "fused_relu": 0,
            "fused_tanh": 0,
            "debug_info": "",
            "pad_fill_mode": 0,
            "pad_b": 0,
            "pad_l": 0,
            "top": "input.71_expanded",
            "K": 256,
            "name": "input.71_expanded",
            "has_batch_norm": 0,
            "type": "convolution",
            "n_groups": 256,
            "pad_t": 0,
            "has_biases": 0,
            "C": 256,
            "bottom": "input.71_expand_dim",
            "weights": {
                "W_f32_compressed_f16": 139
            },
            "Nx": 3,
            "pad_mode": 0,
            "dilation_x": 64,
            "pad_value": 0,
            "Ny": 1,
            "n_parallel": 1
        },
        {
            "alpha": -0.6106749773025513,
            "bottom": "input.71_expanded",
            "weights": {
                "params_prelu": 143
            },
            "mode": 2,
            "debug_info": "",
            "top": "input.71_0",
            "type": "activation",
            "name": "409",
            "beta": 0
        },
        {
            "size_of_axes": 0,
            "bottom": "input.71_0",
            "weights": {},
            "nd_axis": 2,
            "debug_info": "",
            "version": 1,
            "top": "409",
            "type": "squeeze",
            "name": "input.71"
        },
        {
            "axis_h": 0,
            "axis_w": 1,
            "bottom": "409",
            "axis_k": 2,
            "axis_n": 3,
            "axis_seq": 4,
            "weights": {},
            "debug_info": "",
            "top": "stem.sep_module.6.tcn.6.norm_input",
            "type": "transpose",
            "name": "stem.sep_module.6.tcn.6.norm_input"
        },
        {
            "bottom": "stem.sep_module.6.tcn.6.norm_input",
            "weights": {
                "wBeta": 145,
                "wGamma": 147
            },
            "eps": 9.999999974752427e-07,
            "tf_layernorm": 1,
            "debug_info": "",
            "top": "stem.sep_module.6.tcn.6.norm_output",
            "type": "instancenorm_1d",
            "name": "stem.sep_module.6.tcn.6.norm",
            "biased_std": 1
        },
        {
            "axis_h": 0,
            "axis_w": 1,
            "bottom": "stem.sep_module.6.tcn.6.norm_output",
            "axis_k": 2,
            "axis_n": 3,
            "axis_seq": 4,
            "weights": {},
            "debug_info": "",
            "top": "y.14",
            "type": "transpose",
            "name": "stem.sep_module.6.tcn.6.norm_output"
        },
        {
            "bottom": "input.63,y.14",
            "alpha": 1,
            "operation": 0,
            "weights": {},
            "fused_relu": 0,
            "debug_info": "",
            "top": "input.3",
            "type": "elementwise",
            "name": "input.3",
            "beta": 0
        },
        {
            "size_of_axes": 0,
            "bottom": "input.3",
            "weights": {},
            "nd_axis": 2,
            "debug_info": "",
            "top": "input.2_expand_dim",
            "type": "expand_dims",
            "name": "input.2_expand_dim"
        },
        {
            "pad_r": 0,
            "fused_relu": 0,
            "fused_tanh": 0,
            "debug_info": "",
            "pad_fill_mode": 0,
            "pad_b": 0,
            "pad_l": 0,
            "top": "input.2_expanded",
            "K": 256,
            "name": "input.2_expanded",
            "has_batch_norm": 0,
            "type": "convolution",
            "n_groups": 1,
            "pad_t": 0,
            "has_biases": 0,
            "C": 256,
            "bottom": "input.2_expand_dim",
            "weights": {
                "W_f32_compressed_f16": 149
            },
            "Nx": 1,
            "pad_mode": 0,
            "pad_value": 0,
            "Ny": 1,
            "n_parallel": 1
        },
        {
            "alpha": 1.0000687837600708,
            "bottom": "input.2_expanded",
            "weights": {
                "params_prelu": 153
            },
            "mode": 2,
            "debug_info": "",
            "top": "input.2_0",
            "type": "activation",
            "name": "438",
            "beta": 0
        },
        {
            "size_of_axes": 0,
            "bottom": "input.2_0",
            "weights": {},
            "nd_axis": 2,
            "debug_info": "",
            "version": 1,
            "top": "438",
            "type": "squeeze",
            "name": "input.2"
        },
        {
            "axis_h": 0,
            "axis_w": 1,
            "bottom": "438",
            "axis_k": 2,
            "axis_n": 3,
            "axis_seq": 4,
            "weights": {},
            "debug_info": "",
            "top": "stem.sep_module.7.tcn.2.norm_input",
            "type": "transpose",
            "name": "stem.sep_module.7.tcn.2.norm_input"
        },
        {
            "bottom": "stem.sep_module.7.tcn.2.norm_input",
            "weights": {
                "wBeta": 155,
                "wGamma": 157
            },
            "eps": 9.999999974752427e-07,
            "tf_layernorm": 1,
            "debug_info": "",
            "top": "stem.sep_module.7.tcn.2.norm_output",
            "type": "instancenorm_1d",
            "name": "stem.sep_module.7.tcn.2.norm",
            "biased_std": 1
        },
        {
            "axis_h": 0,
            "axis_w": 1,
            "bottom": "stem.sep_module.7.tcn.2.norm_output",
            "axis_k": 2,
            "axis_n": 3,
            "axis_seq": 4,
            "weights": {},
            "debug_info": "",
            "top": "input.4",
            "type": "transpose",
            "name": "stem.sep_module.7.tcn.2.norm_output"
        },
        {
            "bottom": "input.6__in_state,input.4",
            "weights": {},
            "axis": 0,
            "debug_info": "",
            "top": "input.6",
            "type": "general_concat",
            "name": "input.6__concat"
        },
        {
            "bottom": "input.6",
            "end": 0,
            "start": -256,
            "weights": {},
            "axis": 0,
            "debug_info": "",
            "top": "input.6__out_state",
            "type": "slice",
            "name": "input.6__slice"
        },
        {
            "size_of_axes": 0,
            "bottom": "input.6",
            "weights": {},
            "nd_axis": 2,
            "debug_info": "",
            "top": "input.1_expand_dim",
            "type": "expand_dims",
            "name": "input.1_expand_dim"
        },
        {
            "pad_r": 0,
            "fused_relu": 0,
            "fused_tanh": 0,
            "debug_info": "",
            "pad_fill_mode": 0,
            "pad_b": 0,
            "pad_l": 0,
            "top": "input.1_expanded",
            "K": 256,
            "name": "input.1_expanded",
            "has_batch_norm": 0,
            "type": "convolution",
            "n_groups": 256,
            "pad_t": 0,
            "has_biases": 0,
            "C": 256,
            "bottom": "input.1_expand_dim",
            "weights": {
                "W_f32_compressed_f16": 159
            },
            "Nx": 3,
            "pad_mode": 0,
            "dilation_x": 128,
            "pad_value": 0,
            "Ny": 1,
            "n_parallel": 1
        },
        {
            "alpha": 0.9999317526817322,
            "bottom": "input.1_expanded",
            "weights": {
                "params_prelu": 163
            },
            "mode": 2,
            "debug_info": "",
            "top": "input.1_0",
            "type": "activation",
            "name": "461",
            "beta": 0
        },
        {
            "size_of_axes": 0,
            "bottom": "input.1_0",
            "weights": {},
            "nd_axis": 2,
            "debug_info": "",
            "version": 1,
            "top": "461",
            "type": "squeeze",
            "name": "input.1"
        },
        {
            "axis_h": 0,
            "axis_w": 1,
            "bottom": "461",
            "axis_k": 2,
            "axis_n": 3,
            "axis_seq": 4,
            "weights": {},
            "debug_info": "",
            "top": "stem.sep_module.7.tcn.6.norm_input",
            "type": "transpose",
            "name": "stem.sep_module.7.tcn.6.norm_input"
        },
        {
            "bottom": "stem.sep_module.7.tcn.6.norm_input",
            "weights": {
                "wBeta": 165,
                "wGamma": 167
            },
            "eps": 9.999999974752427e-07,
            "tf_layernorm": 1,
            "debug_info": "",
            "top": "stem.sep_module.7.tcn.6.norm_output",
            "type": "instancenorm_1d",
            "name": "stem.sep_module.7.tcn.6.norm",
            "biased_std": 1
        },
        {
            "axis_h": 0,
            "axis_w": 1,
            "bottom": "stem.sep_module.7.tcn.6.norm_output",
            "axis_k": 2,
            "axis_n": 3,
            "axis_seq": 4,
            "weights": {},
            "debug_info": "",
            "top": "y.1",
            "type": "transpose",
            "name": "stem.sep_module.7.tcn.6.norm_output"
        },
        {
            "bottom": "input.3,y.1",
            "alpha": 1,
            "operation": 0,
            "weights": {},
            "fused_relu": 0,
            "debug_info": "",
            "top": "x.1",
            "type": "elementwise",
            "name": "x.1",
            "beta": 0
        },
        {
            "size_of_axes": 1,
            "bottom": "x.1",
            "axes_0": 1,
            "weights": {},
            "nd_axis": 0,
            "debug_info": "",
            "top": "input0.2",
            "type": "expand_dims",
            "name": "input0.2"
        },
        {
            "pad_r": 0,
            "fused_relu": 0,
            "fused_tanh": 1,
            "debug_info": "",
            "pad_fill_mode": 0,
            "pad_b": 256,
            "pad_l": 0,
            "top": "483",
            "K": 1,
            "name": "input1.1",
            "has_batch_norm": 0,
            "type": "convolution",
            "n_groups": 1,
            "pad_t": 256,
            "has_biases": 0,
            "C": 12,
            "bottom": "input0.2",
            "weights": {
                "W_f32_compressed_f16": 169
            },
            "Nx": 1,
            "pad_mode": 0,
            "pad_value": 0,
            "Ny": 385,
            "n_parallel": 1
        },
        {
            "size_of_axes": 1,
            "bottom": "31",
            "axes_0": 1,
            "weights": {},
            "nd_axis": 0,
            "debug_info": "",
            "top": "484",
            "type": "expand_dims",
            "name": "484"
        },
        {
            "bottom": "x.2__in_state,484",
            "weights": {},
            "axis": 0,
            "debug_info": "",
            "top": "x.2__stateconcat",
            "type": "general_concat",
            "name": "x.2__concat"
        },
        {
            "bottom": "x.2__stateconcat",
            "end": 0,
            "start": -15,
            "weights": {},
            "axis": 0,
            "debug_info": "",
            "top": "x.2__out_state",
            "type": "slice",
            "name": "x.2__slice"
        },
        {
            "bottom": "x.2__stateconcat",
            "t": 0,
            "weights": {},
            "l": 0,
            "debug_info": "",
            "r": 15,
            "top": "x.2__statecrop",
            "type": "crop",
            "name": "x.2__crop",
            "b": 0
        },
        {
            "bottom": "483,x.2__statecrop",
            "alpha": 1,
            "operation": 1,
            "weights": {},
            "fused_relu": 0,
            "debug_info": "",
            "top": "x.2",
            "type": "elementwise",
            "name": "x.2",
            "beta": 0
        },
        {
            "name": "input1.2",
            "weights": {},
            "dst_w": 0,
            "version": 1,
            "dst_n": 1,
            "dst_nd_rank": 3,
            "type": "reshape",
            "dst_h": 4608,
            "mode": 0,
            "dynamic_shape": false,
            "bottom": "x.2",
            "debug_info": "",
            "dst_seq": 1,
            "dst_k": 1,
            "top": "input1.2"
        },
        {
            "size_of_axes": 1,
            "bottom": "input1.2",
            "axes_0": -2,
            "weights": {},
            "nd_axis": 0,
            "debug_info": "",
            "top": "target.1_has_output_shape_expand_dim",
            "type": "expand_dims",
            "name": "target.1_has_output_shape_expand_dim"
        },
        {
            "bottom": "target.1_has_output_shape_expanded__in_state,target.1_has_output_shape_expand_dim",
            "weights": {},
            "axis": 0,
            "debug_info": "",
            "top": "target.1_has_output_shape_expanded__stateconcat",
            "type": "general_concat",
            "name": "target.1_has_output_shape_expanded__concat"
        },
        {
            "bottom": "target.1_has_output_shape_expanded__stateconcat",
            "end": 0,
            "start": -1,
            "weights": {},
            "axis": 0,
            "debug_info": "",
            "top": "target.1_has_output_shape_expanded__out_state",
            "type": "slice",
            "name": "target.1_has_output_shape_expanded__slice"
        },
        {
            "pad_r": 64,
            "fused_relu": 0,
            "fused_tanh": 0,
            "debug_info": "",
            "pad_fill_mode": 0,
            "pad_b": 0,
            "pad_l": 64,
            "top": "target.1_has_output_shape_expanded",
            "blob_weights": 171,
            "K": 4608,
            "stride_x": 64,
            "name": "target.1_has_output_shape_expanded",
            "deconv_out_height": 1,
            "has_batch_norm": 0,
            "type": "deconvolution",
            "n_groups": 12,
            "pad_t": 0,
            "has_biases": 0,
            "C": 12,
            "bottom": "target.1_has_output_shape_expanded__stateconcat",
            "weights": {},
            "Nx": 128,
            "pad_mode": 0,
            "pad_value": 0,
            "Ny": 1,
            "n_parallel": 1
        },
        {
            "bottom": "target.1_has_output_shape_expanded",
            "size_of_axes": 1,
            "axes_0": -2,
            "weights": {},
            "nd_axis": 0,
            "debug_info": "",
            "version": 1,
            "top": "target",
            "type": "squeeze",
            "name": "target.1_has_output_shape",
            "attributes": {
                "is_output": 1
            }
        }
    ]
}